scripts/training_scripts/checkpoints/example_trained_model.pt (torch, 731378 bytes, 76 tensors)

weight f4 [8, 1, 3, 3]
00000000: 67b5 cc3c 3b68 943d 482d 283e df7c 37bd
00000010: 1fd3 873d ccd9 833d 4590 83be e4c7 7ebe
00000020: b216 9ebd dbc8 103e 838b 39bd 5222 883e
00000030: b831 3bbe dc5a 233e ea76 563d a83e 89be
00000040: bb09 313c 9872 95bc 408a cb3d a394 7f3e
00000050: 70f5 0f3e 9235 7fbe 3d39 5a3e 7687 90be
00000060: acff 243d 32a9 a23e 1d40 3ebe 7716 58bd
00000070: 5c30 67be 3f0c 72be d3af 3e3e 1315 ccbe
00000080: db72 cbbe 1ff2 d0bd ca40 dabd a08b 89be
00000090: 6041 f93d a36b 6d3e cdcc 323b cd00 8a3d
000000a0: 4100 a1bc 6738 1d3e d328 e63d de01 183e
000000b0: ec87 7ebc 707c 91be 0077 16be e849 1dbd
000000c0: 5c29 143e f700 1f3e 4002 a63d 8509 6abe
000000d0: 69a6 cfbb d452 773d d2e4 ac3e f7a8 c33d
000000e0: cf07 64bd c307 6ebe a4b4 b33d b1ff 54be
000000f0: 628a 8b3e 9baf 9e3d 517c 1cbd 0167 cf3d
00000100: c1f2 e6bc 6de5 44be 9ef4 37bd 3452 a83e
00000110: c62e 85bb 7e71 f7bd 8398 833e fe8f 9cbe
0.024988843 0.07246443 0.16423523 -0.04479682 0.06632065 0.06438026 -0.25696006 -0.2488094
-0.077191725 0.1413912 -0.045299064 0.26588684 -0.18280685 0.15952629 0.0523595 -0.26805615
0.010805543 -0.01824312 0.099384785 0.24959044 0.1405847 -0.24922779 0.21310897 -0.28228348
0.04028289 0.3176971 -0.18579145 -0.0527558 -0.22577041 -0.23637484 0.18621759 -0.39859828
-0.39736065 -0.10202431 -0.10656889 -0.26864338 0.121706724 0.23185591 0.0027282715 0.06738434
-0.019653441 0.15353547 0.11238255 0.14844462 -0.015535336 -0.2841525 -0.14693832 -0.03840056
0.14468902 0.15527712 0.08105898 -0.22855194 -0.0063369763 0.060381725 0.33768326 0.09553712
-0.05567151 -0.23245148 0.08774689 -0.20800664 0.27254015 0.07748338 -0.038204495 0.10127068
-0.028191926 -0.19228144 -0.04491102 0.32875216 -0.0040644137 -0.12082194 0.25702295 -0.30578607

bias f4 [8]
00000000: c2e6 733e d505 0cbe cada 883e 2346 6c3d
00000010: 2f53 413e c047 ee3d 1c6e 9bbe e8a3 8bbd
0.23818496 -0.136741 0.26729423 0.057684075 0.18879388 0.11634779 -0.30357444 -0.06818372

weight f4 [8]
00000000: fad1 853f 92a6 863f 6c96 7d3f 94f0 853f
00000010: 68ea 7e3f 1934 813f f955 7e3f 941a 883f
1.0454705 1.0519583 0.9905765 1.0464044 0.99576426 1.0094024 0.99349934 1.0633111

bias f4 [8]
00000000: a73d 3ebb e16b 333d eb14 843c 1560 17bc
00000010: f990 0b3c 98af 923b 7f6f 48bb cac6 a53a
-0.0029028447 0.043804053 0.016123256 -0.009239216 0.008518451 0.004476499 -0.0030584035 0.0012647745

running_mean f4 [8]
00000000: 978b 343e 1a46 eabd dff4 ad3e 63b4 9dbe
00000010: 8301 d93e 7118 133d f16b 5cbe bac7 9ebd
0.17631374 -0.11439152 0.33975884 -0.30801687 0.42383966 0.03591198 -0.21525551 -0.077529386

running_var f4 [8]
00000000: f3af 4b3c 7a30 363c cf66 b13c 6d02 303e
00000010: deb4 8a3d 1dd0 4c3c 2fd2 9d3c d0e5 033c
0.012432086 0.011119956 0.021655468 0.17188425 0.06772779 0.01250079 0.019265262 0.008050397

weight f4 [8, 8, 3, 3]
00000000: 5e27 4b3d d62e 613d e360 e3bd 3f3f e7bd
00000010: 298d efbd 4885 15bd 7ead d73d cd40 df3b
00000020: a3f2 b83d 49c4 12be c4a2 963d 60a9 953d
00000030: 9d33 a2bd 4a7f fdbc ff71 89bd 43ee 95bd
00000040: bc24 58bd 265b 523d 9ea1 09bb a0e3 aebc
00000050: 7499 ed3d 4c7a 833d 6e49 743d c821 123c
00000060: aa78 56bd 45be 253c 9003 5abc 1537 993d
00000070: f533 f03d 1207 963d f4d6 1fbc ea13 98bd
00000080: 9a53 3fbc ac34 cabd 4874 9abd 3c32 03bd
00000090: b864 f6bc 2e25 41bd b08e 18bd d531 a23d
000000a0: 220e efbc 32c0 bf3d 8b61 7f3c 8464 b7bd
000000b0: 3b14 9c3d 0650 a1bc 95ff 83bc 2767 173d
000000c0: dcb6 49bd fb3f 7f3d 6821 1a3d eaae 883d
000000d0: 55d8 0e3d 971e 7abb 43c8 a73d 38bf 93bd
000000e0: 41ee 33bd 18e2 c1bc 4713 913d d28e 8fbd
000000f0: f0cd df3d 5728 3a3b f42c 8dbd df1e bebc
00000100: fe00 0cbe 2985 24bd 0b1e 3abd 8f06 14be
00000110: 8c36 aebd ec66 2cbd 92dc 5abd 16bf aabd
00000120: f17f 01be fab3 1cbd d011 e6bd 6f1a fabd
00000130: 4494 70bd 25e3 293d 66c6 d3bc 28b7 f83d
00000140: 7c68 0dbc 46da 9c3d 6760 11be 53d7 c8bd
00000150: d529 6abd 4707 923d c4f5 20bd 7d31 963d
00000160: ef48 f03d fb72 bf3d 3bc8 31bd 5377 5cbd
00000170: 4e5b 15bd d563 6d3d 9fc2 9dbd 5038 683b
00000180: a506 ebbd 37f0 683d 3a47 a93c e8af 4fbc
00000190: 4b93 983d b3b7 aabd db56 c53c b45a 163d
000001a0: afb1 d13c b48a f23d bef1 c1bd 047c bcbd
000001b0: 7a29 e13c 1083 d3bd d265 593a ae50 ccbc
000001c0: 1194 1c3c 2a06 93bd 5449 ca3d 58dc b1bd
000001d0: e948 bb3c 4e69 aa3d bd7d 563d 2e57 f13d
000001e0: ab35 f6bd 5abc 133d 689e ee3d a895 27bd
000001f0: fd39 cf3d 996b bb3d 078d f83d f988 c5bd
00000200: 44ef 4a3d ea65 ee3d 46fe e73c 8274 b73d
00000210: fc31 a23d ea4c f23d 89b3 5ebd 6e74 a2bd
00000220: 8fd0 073c 472f 053d a548 adbd 0591 b2bd
00000230: 9c06 73bc 9f44 ebbc 1f81 333c 2e0b e4bc
00000240: 6e06 c5bc 42f4 8f3d 5d39 8d3d be2b 1c3c
00000250: 99ce e03d 42a0 183b cd05 ebbd 3e0b 983c
00000260: 42c5 bc3d 4f74 fd3d 0ea2 babd 1685 cb3d
00000270: f8a2 183d d063 ea3d 3723 18bd 4e87 80bd
00000280: 94d0 60bc 6a9c cabd c3c1 c2bd b041 c03d
00000290: 7513 0c3c de4b aabc c7f7 493d 9ff2 6e3d
000002a0: cb2c 263d 8d88 e13d 4e1f 3e3d 3b29 b2bc
000002b0: e280 86bd d403 96bd 83ab 5bbd 82e4 79bd
000002c0: 495b 96bd dc4a f83c 482f 58b9 61df 91bd
000002d0: 4c38 9bbd 17eb 4bbd 8beb 53bd ff57 b6bd
000002e0: eef6 af3c 55f7 8b3d f931 e6ba 9c2a 143d
000002f0: 1ab6 f23c 2a13 663b d4a9 91bd 5bb4 9cbd
00000300: 1220 443d 7d6f adbd 0490 0fbc fda0 fb3c
00000310: 8993 e6bd 7d3c cfbc 9a74 d13b 82ef 7cbd
00000320: 8295 5c3d 1bcf 923d 0e2a 8abc 31c8 e7bb
00000330: 6569 24bd 44af 88ba ef6a cfbc 883d 37bc
00000340: ebfe 5dbd c54f 89bd fc4b 3c3d a9fa adbc
00000350: 42f2 89bd 9cb7 e13d b50d a13d 655e b9bd
00000360: dbb7 babb 719e 72bd f16f bdbd 9d49 3cbd
00000370: c2c2 2a3d ecd3 cd3d c16e 92bd 3b93 35bd
00000380: 1610 bfbd d65c f33c d4b5 cabd 13e4 9b3d
00000390: b9b0 babb 6b2f 78bc b3a9 923c bc68 c43c
000003a0: 92e2 a2bd 566b cbbd 7e4d 953d a37d 0dbb
000003b0: 890b cc3c c84b dcbc e4e1 a3bd 907c e23d
000003c0: 02e1 823d fdfb bbbd 6fc2 113b 2f65 8bbd
000003d0: 326f 9cbd 83a9 4a3d 9ce4 9ebd d03b 9d3d
000003e0: 442d 55bd 0f2c 873d 20da d53d 1255 ae3d
000003f0: d032 fa3d 12c7 fdbb 2cad 813d ab66 65ba
0.04959809 0.054976307 -0.11102464 -0.1129136 -0.11696846 -0.03650406 0.10531138 0.006813145
0.09030654 -0.1433269 0.07355264 0.07307696 -0.07920001 -0.030944485 -0.06711196 -0.073208354
-0.052769408 0.051356457 -0.0021000872 -0.021348774 0.116015345 0.06419811 0.05964034 0.008919187
-0.052361168 0.010116165 -0.013306513 0.07481209 0.1172866 0.07325567 -0.009755839 -0.07425673
-0.011677647 -0.098733276 -0.0754171 -0.03203033 -0.030077323 -0.047154598 -0.037245452 0.07919661
-0.029181544 0.0936283 0.015587221 -0.08954719 0.07621046 -0.019691478 -0.016113082 0.036963608
-0.049246654 0.062316876 0.037629515 0.06673987 0.03487428 -0.0038165206 0.08192494 -0.072142065
-0.04392839 -0.02366738 0.07083755 -0.07009663 0.10927951 0.0028405392 -0.0689334 -0.02320808
-0.13672253 -0.040166054 -0.045438807 -0.14455627 -0.08506498 -0.04209034 -0.05343301 -0.08337228
-0.12646462 -0.038257577 -0.11233866 -0.12212073 -0.058735147 0.041476388 -0.02585144 0.12144309
-0.008630868 0.0765882 -0.14196931 -0.09806695 -0.0571688 0.07130294 -0.03929688 0.07333658
0.11732661 0.09348103 -0.043403845 -0.053824734 -0.036464028 0.057956535 -0.07703137 0.0035433955
-0.11475877 0.05686971 0.020663846 -0.012676217 0.07449969 -0.08335819 0.024089267 0.036707595
0.025597421 0.11842862 -0.09469937 -0.092033416 0.027485598 -0.103277326 0.00082930655 -0.024940815
0.009556786 -0.0717891 0.098772675 -0.08684605 0.022861915 0.083208665 0.052366007 0.11784206
-0.12021955 0.036068298 0.11651307 -0.040914208 0.10118482 0.09151382 0.12136274 -0.09645266
0.049544588 0.11640532 0.02831949 0.08957769 0.0791969 0.118310764 -0.054370437 -0.079323635
0.00828947 0.03251579 -0.084611215 -0.087190665 -0.014833119 -0.028719245 0.010956078 -0.027837362
-0.024050917 0.0702901 0.06895707 0.009531913 0.109769054 0.002328888 -0.11475716 0.018560048
0.092173114 0.123757 -0.09112941 0.099374935 0.037264794 0.11444819 -0.03714296 -0.06275807
-0.013721604 -0.09893115 -0.09509613 0.09387529 0.008549561 -0.02078813 0.049308565 0.05833685
0.04057006 0.11012373 0.046416573 -0.021748176 -0.06567551 -0.07324949 -0.053630363 -0.061008938
-0.0734163 0.030309133 -0.00020616979 -0.07122684 -0.07579097 -0.049784746 -0.051738303 -0.08903503
0.02148005 0.06834284 -0.00175625 0.036173448 0.029627848 0.0035106638 -0.0711247 -0.076515876
0.047882147 -0.0846853 -0.008762363 0.030716414 -0.11258609 -0.025297398 0.006392074 -0.06175185
0.05385352 0.071684085 -0.016865756 -0.007073425 -0.040139575 -0.001042821 -0.025319545 -0.011184104
-0.054198187 -0.06704668 0.0459709 -0.021237688 -0.0673566 0.11021349 0.078639425 -0.090512075
-0.005698187 -0.059233133 -0.09249867 -0.04596864 0.04168964 0.100501865 -0.07150031 -0.044329863
-0.0932924 0.029707354 -0.09897962 0.07611861 -0.0056973365 -0.015148024 0.017903185 0.023975722
-0.07953371 -0.09932582 0.07290171 -0.0021589778 0.024907844 -0.026891604 -0.080020696 0.11058915
0.06390573 -0.09178922 0.0022241136 -0.068064086 -0.07638396 0.049478065 -0.077584475 0.07677424
-0.05204512 0.066002004 0.10441995 0.085123196 0.12216723 -0.0077446783 0.06331858 -0.00087509555

bias f4 [8]
00000000: d4d3 f53d a194 93bd c090 0cbc ff37 913d
00000010: 2193 b13d 90b6 da3d c42e ec3c 4a75 34bd
0.12003294 -0.07206083 -0.008579433 0.070907585 0.08670641 0.10679352 0.028830893 -0.044057168

weight f4 [8]
00000000: 76e5 893f e01c 853f 28b1 823f b30c 823f
00000010: 424c 843f f01c 853f 584c 823f 92e6 883f
1.0773151 1.0399437 1.0210314 1.0160125 1.0335772 1.0399456 1.0179548 1.0695364

bias f4 [8]
00000000: 7617 ad3c b628 5b3c 51fa 123d b9ed 9b3a
00000010: 7e95 423c 35d5 3fba 32eb d53b ab2b f93c
0.021129351 0.013376405 0.03588325 0.0011896408 0.011876462 -0.0007317842 0.0065282816 0.03041633

running_mean f4 [8]
00000000: ed4d 7dbd fe35 babc 2139 76be f705 933e
00000010: 189b 3c3e 5304 ff3d 6295 b63e 698f 3abe
-0.061841894 -0.022730824 -0.2404523 0.28715488 0.18418539 0.12451997 0.35660845 -0.18218769

running_var f4 [8]
00000000: bb60 ca3d 7015 973d 5d3e ff3d a8c3 2f3e
00000010: 3985 fb3c e631 a33d 3a8c 813d 33db a63d
0.09881731 0.07377136 0.12463067 0.1716448 0.030703174 0.07968502 0.06325574 0.08147278

weight f4 [16, 8, 5, 5]
00000000: 3821 8abc 4cc6 0fbb d4c3 c23c 6106 b4bd
00000010: 6649 7f3d f261 473d 0eaf 9e3c fea1 0fbd
00000020: 51d8 d5bc 447f 50bd 59f2 893d 5560 313d
00000030: 51d7 ffbc c1ae bbbd 10b0 9f3c d8d6 c03d
00000040: 9fc3 443d 1cd8 8a3c 5604 14bd bf0f 34bd
00000050: 459c 693d 54ea 633d a65d 313d 2fc7 d3bc
00000060: c5ea 29ba 1299 9f3d 024b 133d f1da 76bd
00000070: 7b89 ad3c 5c2b 9c3c 02f0 a13d 51e4 16bd
00000080: b69e 113c a52a 6c3d f1dd a8bc aabf 153d
00000090: e15e 59bc 9450 293c 19fd b9bc 1581 dabc
000000a0: ab86 7b3d aac5 d83c 4013 043d 8b00 c0bc
000000b0: e2d4 14bd 6eaf a8bc 53a3 5abd 5358 fa3c
000000c0: a848 0cbd 79ac 02bd 4f84 fa3c 1ce1 5bbd
000000d0: c3d7 123d 6359 20bc 7d2d 31bd 930a 2abd
000000e0: c094 ba3c 1e66 62bb 6739 8c3d 7241 723c
000000f0: 836e 9fbd b569 84bd 7a3e 70bc 4c7f 25bd
00000100: be15 7e3d 0e8d 29bd 6d2e 6e3d 26d5 7d3d
00000110: 9348 29bd fa41 9dbb 3761 18bc c332 a4bc
00000120: 2937 313d a355 863d 863b 0abd 3d40 253d
00000130: dea6 d63b 892b 683d 5524 08bd 08b0 083d
00000140: 6207 2c3d 2544 9dbc 589d 393d 1d4a d23c
00000150: 78e0 35bd 1bfc 903b 02cf dcbc 916a 9c3d
00000160: 0265 383d aa83 ffbc ce1c 8abd 8cd5 a63c
00000170: ae24 83bc 6ab3 02bd ad73 d0bb a79e 8abd
00000180: 329d 1dbd 5fa4 873c 95ee 61bd 537c 3bbd
00000190: 90a9 6e3d 2ec8 52bd 740b 523d 010a 103c
000001a0: f88f 143d d47a 2c3d 4f8c c7bc 8887 40bd
000001b0: 5ba9 a73b a7e3 a2bc 0fe8 f9bc b3c4 493d
000001c0: 0762 c1bc 7cee 2a3b 8e77 58bd 79cf 20bd
000001d0: d410 023d 3bfa 2bbd 20b4 50bd 266a d23c
000001e0: d6bb 6c3d dc25 74bc f892 62bd b83f a03c
000001f0: 3d92 69bd 1e89 b13d 632c adbb c3a5 8f3d
00000200: d081 753d dedd 703c 06b9 40bd 9d02 75bc
00000210: 0810 31bd 37b7 94bc 9c25 16bd 260c b83d
00000220: e394 77bd c310 273d e51b a23d bcab 9d3d
00000230: 3724 5b3d 985c 2cbd a4fc 033d 57b2 873d
00000240: 48fb 0a3d c880 393d 09bd 58bd f66e 3d3d
00000250: 7370 203c 37fa 97bd 1a64 4d3d 321a 793d
00000260: 8a7f 013d 9faf a7bd 620a 6ebd 89f7 313c
00000270: 2bd0 4a3d cc4d b2bb 01e9 0cbd f81d 5e3c
00000280: 9f84 22bd d425 5d3d e2f9 53bd 4ca5 63bc
00000290: 672a a53d f20e 13bd dba6 36bd d2b1 753d
000002a0: e40c 593d d21b f8bc 691f 20bc da31 e6bc
000002b0: b396 653d b6e3 15bd 422f 2abb 1224 7fbd
000002c0: 8519 33bc a6e5 093d 8f11 54bc 81ac 26bd
000002d0: b0f2 7d3d 789c f43c 516e 393d 80b5 e8bc
000002e0: fb3c d93c f83c 033d 21ec 6fbd 4291 f7bc
000002f0: 1601 59bd baef 6abd 6011 2a39 85a6 5f3d
00000300: 6291 f63c f280 b63b 3fd2 0fbd a837 b13b
00000310: f34a 443d 8b8c 08bd ed68 2f3a 073d 873d
00000320: 8569 5abd 9b77 e53c d2a7 cc3d c191 b03d
00000330: 6aac c1bc d0ed 0d3c 35c6 213d 9ab6 b93c
00000340: 2d11 8e3c d8a3 a33d 956f 243d f0f0 f4bc
00000350: ade7 18bb 951b 983d 3748 813d b399 46bd
00000360: e68b cc3c 84e7 9dbc dce4 37bc be36 19bd
00000370: 9770 c1bb abab 133d dd8c 033c eb9d 933d
00000380: 4c72 623d dd12 d9bc ca2b d23c f2b3 65bd
00000390: a92e cebc 3c2c 92bd 7c4c 873a 54ab 453c
000003a0: 81d2 03bd 401b 8c3b f915 85bc 9013 7b3d
000003b0: c839 8c3d 7b45 853d 7fe7 31bd 99f1 b6bc
000003c0: f3b3 8aba ebb1 10bd 32ad 37bc 1783 f4bc
000003d0: 5359 48bb 73d5 633d 609f d438 4635 d63c
000003e0: 3f3e f9bc ce36 38bd 6d91 6c3d 0b57 90bd
000003f0: 3a70 b9bc f3fc 2cbd 5c73 12bd 7b89 97bd
-0.016861543 -0.0021938263 0.023775019 -0.08790279 0.062325858 0.048677392 0.019370582 -0.035066597
-0.026104124 -0.05090262 0.06735677 0.04330476 -0.0312306 -0.09164191 0.019493133 0.09415978
0.04803812 0.016948752 -0.036136948 -0.04396033 0.057033796 0.055643395 0.0433022 -0.025851814
-0.0006481822 0.07792868 0.035960205 -0.060267393 0.02118372 0.019063644 0.07907106 -0.036838833
0.008887937 0.057657856 -0.020613642 0.03655974 -0.01326725 0.010334153 -0.022703694 -0.02667288
0.061407726 0.026461441 0.03224492 -0.023437759 -0.036335833 -0.020591464 -0.053378414 0.030559694
-0.034248978 -0.031902764 0.030580668 -0.053681478 0.035850298 -0.009786936 -0.04325627 -0.04151399
0.022776008 -0.003454573 0.06846886 0.014786111 -0.0778475 -0.064654745 -0.014663333 -0.040404603
0.062032454 -0.041394286 0.058149744 0.061970852 -0.041328978 -0.004799125 -0.009300522 -0.020043736
0.043265495 0.06559303 -0.033748172 0.040344466 0.006550654 0.056682143 -0.033237774 0.033371
0.04199923 -0.019197533 0.04531607 0.025670106 -0.044403523 0.0044245846 -0.026954178 0.076375134
0.045018204 -0.031190712 -0.06743775 0.020365499 -0.016008701 -0.031909384 -0.006361446 -0.06768542
-0.03847999 0.01655787 -0.05515917 -0.04577286 0.058267176 -0.051460437 0.051280454 0.008791448
0.03627011 0.042109326 -0.024358897 -0.047004253 0.0051166243 -0.019883944 -0.030506162 0.049259853
-0.023606313 0.002608209 -0.05284839 -0.03926036 0.03175433 -0.041986685 -0.05095303 0.025685381
0.05779632 -0.0149016045 -0.05531594 0.019561633 -0.05702423 0.08668731 -0.0052848323 0.070140384
0.059938252 0.014701335 -0.047051452 -0.014954236 -0.04322818 -0.01815377 -0.03665696 0.08986692
-0.060444724 0.04078747 0.07915477 0.07698771 0.053501334 -0.04208049 0.03222336 0.066258125
0.033931047 0.04528883 -0.052914653 0.0462484 0.009792435 -0.074207716 0.050144292 0.060815997
0.03161577 -0.08187794 -0.05811537 0.01086224 0.04951493 -0.005441403 -0.034401897 0.01355695
-0.03967726 0.053991154 -0.05175198 -0.01389439 0.08064728 -0.035902925 -0.04459272 0.059984036
0.05299081 -0.030286703 -0.009773114 -0.028099943 0.05605192 -0.036594115 -0.002596811 -0.06229026
-0.010931377 0.033666275 -0.012943639 -0.040691856 0.061999023 0.029859766 0.04527122 -0.028406858
0.026518336 0.032040566 -0.0585748 -0.030220632 -0.05297955 -0.057357527 0.00016218936 0.054602165
0.03009862 0.0055695707 -0.035112616 0.005408246 0.04792304 -0.033337157 0.00066913554 0.06603437
-0.053323288 0.028011134 0.09992947 0.0862155 -0.023641784 0.008662656 0.039495666 0.022670079
0.017342174 0.07990235 0.040145475 -0.029900044 -0.002333145 0.07427136 0.06312602 -0.048486423
0.024969053 -0.019275434 -0.011223998 -0.03740572 -0.0059033143 0.036052387 0.00802919 0.07207855
0.055284783 -0.026498253 0.025655646 -0.056079812 -0.025168734 -0.07137343 0.0010322477 0.012064774
-0.032183174 0.0042757094 -0.016245829 0.061297953 0.068469584 0.06507393 -0.043433663 -0.022332
-0.0010582193 -0.035325926 -0.011210727 -0.029847665 -0.003057082 0.055623483 0.00010138634 0.02614845
-0.030425189 -0.04497414 0.057755876 -0.07047852 -0.022636522 -0.04223342 -0.035754547 -0.07399269

bias f4 [16]
00000000: 419e 4e3d 6b12 c9bb 5381 10bd b3dc 7cbd
00000010: afe4 d43c b979 d33c f91c 153d dba5 213c
00000020: 0a33 33bd a5c4 8bbc 8f75 05bd a887 9fbb
00000030: f6f1 4b3d 132d 4abd 9d3f 8c3d c5b6 073c
0.05044389 -0.006136229 -0.035279583 -0.061733913 0.025987951 0.025814878 0.036404584 0.009866203
-0.043749847 -0.01706154 -0.032582816 -0.0048684664 0.0497913 -0.049359392 0.06848071 0.008283322

weight f4 [16]
00000000: 8d42 843f e52c 853f f425 813f 5994 853f
00000010: d249 833f cae4 843f 1116 853f 3003 833f
00000020: a228 853f 5a1b 873f 23c7 833f ef72 843f
00000030: 4438 863f 3748 843f 5c43 823f cfac 863f
1.033281 1.0404326 1.0089707 1.0435897 1.0256903 1.0382321 1.0397359 1.0235348
1.0403025 1.0555222 1.0295147 1.0347575 1.0485921 1.0334538 1.0176806 1.0521487

bias f4 [16]
00000000: 8bee 523c b45b 6c3c 4bd8 853c c690 32bc
00000010: 3d5d f3ba 7d9c 923c bf00 323d 1490 fe3c
00000020: f3c2 7b39 d9cf 7b3b 8d97 f23c 099b 123c
00000030: 6bbc bf3b bf76 163c 6103 64bc 83c3 47bb
0.012874256 0.014426161 0.016338488 -0.0108987745 -0.0018567216 0.017896885 0.043457743 0.031074561
0.0002400985 0.0038423447 0.02961328 0.008948096 0.0058513186 0.009183585 -0.013916821 -0.0030481524

running_mean f4 [16]
00000000: 401e f83d f391 8dbe a12d 713e cdef 8a3c
00000010: cb41 853e 110b 2f3e 09e3 83be 40f7 a3be
00000020: ac30 1fbc 6f18 1b3d c41f af3d 2733 843d
00000030: 8d36 abbe d5d9 82bd e30f 4abe 7742 6ebd
0.12115145 -0.27650413 0.23552562 0.016960049 0.2602676 0.17094065 -0.25759152 -0.32024574
-0.009716194 0.0378651 0.08550981 0.06455069 -0.33440056 -0.063892044 -0.19732623 -0.058168855

running_var f4 [16]
00000000: bd71 bb3d f03a ea3d 05fd 063e 7075 273e
00000010: 6dce 1b3e 08fc 683e 7d66 eb3d c44a 053e
00000020: 78df d83d eddc 163e 8c79 473e a6ff 2a3e
00000030: 7454 b23d 6aad e13d f723 303e 1340 043e
0.09152553 0.11437023 0.13182457 0.16353393 0.15215464 0.22752392 0.114941575 0.13016802
0.10589498 0.14732714 0.1947996 0.16699085 0.087075144 0.11019404 0.1720122 0.12915067

weight f4 [16, 16, 3, 3]
00000000: f5cf 23bd b429 b43c 08de 993d 174b 963c
00000010: ea82 53bc bf7f 093c 259a 023c c593 abbd
00000020: b06d 313d 216a 8abd afbc bcbd 9448 00bd
00000030: da29 3d3d fa83 adbd 8058 ee3c 0b0b 59bd
00000040: e633 d13d 91c3 bdbc c27e 363d 9148 fcbc
00000050: e46a 72bd f63d 213d d508 39bd feec 6ebd
00000060: 8ab9 ccbc 1a24 9a3d 48ca 9abd d5db 283d
00000070: 4ffd 263d e794 5ebd a33c a5bd 9cff c6bd
00000080: 4af8 e8bb 2a3c 63bd 3b8b d8bd e19e 04bd
00000090: 56ee 8abd 2c22 9d3d 596e babd 5f5b 903c
000000a0: 223d 93bc c285 663d c215 30bd c5fa 12bd
000000b0: d64f 7ebd 2e4a abbc 7051 18bd 573e 313d
000000c0: 5c2e a8bc 1faf 903d e471 3b3b 28ab a33b
000000d0: 142b d9bc ed74 06bd 9a29 9dbd e731 3abd
000000e0: c021 953d 46bf a0bd a2f3 a33d be5b f9bb
000000f0: a70f 3abd d3e8 8b3d e72f 48bd 2124 3d3a
00000100: 201d 773d dbe8 823d ea5c d83c 9188 9bbc
00000110: 3d8d 073d 3301 5b3b 74b2 393d 6ff2 b93b
00000120: 8743 12bd b7a0 aa3d d0e6 2abd 23be 4d3d
00000130: 589d 2b3d 3f9a 42bc fd2c 893d 8064 62bd
00000140: 5755 acbc 1cb4 9e3d 30b8 f3bc d1ae 8ebd
00000150: ea8c c33d 3909 00bd 7b82 57bd 37f8 623d
00000160: 6e56 613d bf9a 533c d586 00bd 24f0 f6bc
00000170: b44d b4bd a328 e9bc 8eab 173d 065b 7abd
00000180: f5b4 89bd 9695 083d 5d21 c8bd 041a 6cbd
00000190: 0b1e 413d f315 a43c ce92 853d 2e03 273d
000001a0: a1c8 ad3c a150 073d 6a01 823d c668 763c
000001b0: 51c4 7a3c e476 32bc 1b68 283d bfeb de3c
000001c0: c2c9 ffbc 6a99 cf3d 6dbe 75bd 495d a63d
000001d0: 827c a93d eabb 8dbd 42f1 9cbc 1d38 19bd
000001e0: 59b8 35bb d083 8fbd b916 40bd f650 c6bc
000001f0: 9978 09bd dd19 e73c 72e1 50bd 04dc 5f3d
00000200: 3850 f23c 0f73 ae3d 5971 c43d e6ff 86bd
00000210: 3b24 1dbd dd50 953c 81e2 07bd d0d4 e4bb
00000220: b4ac ccbd 238a 093d 6bb5 8d3d 3cb9 4cbd
00000230: 6213 8e3c 2716 a43d db8d a33d 8089 2cbd
00000240: fd81 733c 4ffd 1abd b724 803d 7a60 173d
00000250: 2adb 10bd bc41 113c caa4 01bd 0446 50bd
00000260: b45b 97bd e501 2fbd 39cb f0bc 921c a33d
00000270: 9e0d 9a3d 6413 553d 60bb 8c3d b4e2 863d
00000280: 6b68 933d 1b30 3f3c f382 033d fc60 49bd
00000290: dfc3 163c cd09 d8bc 7525 b8bd 9128 ef3c
000002a0: c30d 00bd 60ca 6b3d 7a00 c03c 4066 9c3d
000002b0: 5826 c5bb fa10 523d 0848 133d ee38 883d
000002c0: 56bd 35bd 30e4 9abd e352 343d 9668 b5bd
000002d0: 47e4 da3d 7b8b ff3c e912 953d f19c 423d
000002e0: 4be5 c73d f36c 83bd 0966 f2bc 491e 40bd
000002f0: 0bea c93c c056 0fbd 7023 53bd 6d10 663b
00000300: 7ca2 9f3d 03b8 61bc bd03 013d ce58 45bd
00000310: 77ea acbd d0d4 8abd bfda aebd c907 9abd
00000320: 3aa3 1bbd fc32 d5bb 32f7 dabc 7614 bb3d
00000330: e9eb b6bc 31d7 8bbd 34fe af3d 5c4a c0bc
00000340: 2622 1f3d 2dfb 81bd 1435 423d bb31 2ebd
00000350: 9144 8b3d 7591 c8bd d237 243c bace 8f3d
00000360: a41c 003e 7706 ecbc 8d9f 7e3d 3ee0 7d3d
00000370: 0994 5cbc 92bc 143c 19e0 5fbd b059 e3bb
00000380: ca0b 5ebd a31e 95bd 6cc2 843d e716 48bd
00000390: cc3e 0bbd 204b 9c3d 6e3a b1bc cdc8 133c
000003a0: b0c6 93bb ff3f 4e3c 6fa4 513d 0a8f 84bd
000003b0: 99ef 803d e7a2 a43c ea22 5abc 506a 1cbb
000003c0: 8a2b 7d3c 4527 603d 7984 fcbc fa45 98bd
000003d0: e65e e43c ad9f c13d cd1c 903c b896 333d
000003e0: 2600 a6bd b870 dfbc 6b1a fdbb fc11 f93c
000003f0: 6d16 9ebc 72ef 2b3c 00e2 81bc 94e6 43bd
-0.039993245 0.021992542 0.07513052 0.018346353 -0.01290963 0.008392273 0.007971321 -0.08377794
0.043317497 -0.06758524 -0.09215676 -0.031319216 0.04618249 -0.08472438 0.029094934 -0.052989047
0.10214977 -0.023164542 0.04455448 -0.030796321 -0.05918397 0.03936573 -0.04517444 -0.058331482
-0.024990816 0.07526417 -0.07558113 0.041225273 0.040768918 -0.054341223 -0.08068206 -0.09716722
-0.0071096765 -0.0554773 -0.10573431 -0.03237808 -0.0678374 0.076725334 -0.091030784 0.017621694
-0.017973486 0.056279905 -0.0429895 -0.035883684 -0.062087856 -0.020909395 -0.03718704 0.043272343
-0.020529918 0.07064652 0.002860182 0.0049947686 -0.026509799 -0.032826353 -0.076739505 -0.045457747
0.07281828 -0.078489825 0.08005454 -0.0076098135 -0.045425083 0.06831517 -0.04887381 0.00072151615
0.06033051 0.0639207 0.026411492 -0.018986018 0.03309368 0.0033417463 0.0453362 0.0056746523
-0.03570893 0.08331435 -0.041724026 0.050230157 0.0418981 -0.011877595 0.06698034 -0.055271626
-0.021036787 0.07749197 -0.029750913 -0.06966937 0.095483616 -0.031258795 -0.05261467 0.055412497
0.055014066 0.012915312 -0.031378586 -0.030143805 -0.08803883 -0.02846176 0.03702884 -0.061121963
-0.06723968 0.03334578 -0.097719885 -0.057641998 0.04714779 0.020029997 0.065221414 0.040774517
0.021213831 0.033035878 0.06347926 0.015039628 0.015305595 -0.010892604 0.041114908 0.027212022
-0.031224135 0.10136683 -0.059996057 0.081232615 0.08275701 -0.069206074 -0.01915801 -0.03740703
-0.0027728288 -0.07007563 -0.04689667 -0.024208527 -0.033562277 0.028210575 -0.05099625 0.054653183
0.029579267 0.085180394 0.09591932 -0.065917775 -0.03836463 0.018227035 -0.033174995 -0.006983377
-0.09993878 0.033579003 0.06919368 -0.04998134 0.017343227 0.08012038 0.07986041 -0.042123318
0.014862535 -0.03783923 0.06257003 0.03695724 -0.03536526 0.00886577 -0.031651296 -0.050848022
-0.07390538 -0.042726416 -0.02939378 0.07964434 0.075221285 0.052020445 0.068716764 0.06586209
0.071976505 0.011669184 0.032107305 -0.049164757 0.009201973 -0.02637186 -0.08991519 0.029194148
-0.031263124 0.057566047 0.023437727 0.0763669 -0.006016534 0.05128572 0.035957366 0.066514835
-0.044370018 -0.075630546 0.04402436 -0.08857839 0.10688072 0.03119444 0.072789975 0.047512952
0.09760531 -0.06417265 -0.02958967 -0.046903882 0.024647733 -0.03499484 -0.051547468 0.0035105005
0.07794663 -0.013776782 0.031497706 -0.048180394 -0.08443158 -0.06778872 -0.08537816 -0.07521016
-0.03799746 -0.006506322 -0.0267292 0.09134762 -0.022329288 -0.06828154 0.08593407 -0.023472957
0.038850926 -0.06346736 0.0474139 -0.042527895 0.068001874 -0.09793369 0.010023074 0.07021852
0.12510926 -0.028811676 0.06216388 0.061981432 -0.013463029 0.009078162 -0.054657076 -0.006938182
-0.05421046 -0.07281234 0.064823955 -0.048849966 -0.033995435 0.076315165 -0.021634307 0.009020043
-0.0045097694 0.0125885 0.051182207 -0.06472595 0.062956996 0.02009721 -0.013313988 -0.0023867078
0.015452275 0.05472495 -0.030824887 -0.07435222 0.027877282 0.09454284 0.017591858 0.04384491
-0.08105497 -0.027275428 -0.0077240965 0.030404083 -0.019297803 0.0104941 -0.015854836 -0.04782732

bias f4 [16]
00000000: 70fc ab3d 3a56 54bd e178 173d b711 983c
00000010: 0c19 ab3d bb00 353c 27ea 8ebd 97f6 11bd
00000020: f389 24bd 874a 00bd 3f01 cebc 93c2 283c
00000030: ee67 ea3c 972c a73c 5d15 673d 6245 563b
0.08397758 -0.051840045 0.036980513 0.018563135 0.08354387 0.011047537 -0.06978255 -0.035635557
-0.04017062 -0.031321075 -0.025147079 0.010300296 0.02861401 0.020407004 0.056416858 0.0032695164

weight f4 [16]
00000000: b7f2 863f 9487 873f f438 843f 18aa 833f
00000010: f133 843f f35a 853f 7fe4 833f 023e 893f
00000020: be6f 7f3f 2f59 843f 91a7 863f 1b07 853f
00000030: 3498 853f 74f4 833f 4ba4 873f 8bb6 843f
1.0542821 1.058825 1.0329881 1.0286283 1.0328351 1.041838 1.0304106 1.0722048
0.9977988 1.0339717 1.0519887 1.0392793 1.0437074 1.0308976 1.0597013 1.0368208

bias f4 [16]
00000000: baa2 ec3c 96da a53c 702e b53c b1db 8bbc
00000010: 2f08 263c 3909 dd3c 8d19 bc3c 1af1 ec3c
00000020: d116 94bc 63c6 f73b 7804 3a3d 25fc b13c
00000030: b38b 663c cae4 a439 89eb 293d 5ebc 933c
0.028886188 0.020245831 0.02211687 -0.01707253 0.010133787 0.026981937 0.022961402 0.02892356
-0.018077286 0.0075614913 0.045414418 0.021726677 0.014071393 0.0003145098 0.04148439 0.018034156

running_mean f4 [16]
00000000: 7bc1 11be 5e92 433a ac1d a3be e610 263e
00000010: 3695 fa3d 1322 853c 6e8b 6abe 3297 d3be
00000020: d91b dcbe 87f2 d6bc b8d7 9abe 2ab5 c5bd
00000030: 82e4 09bc c442 ecbd a202 0dbe 8496 36be
-0.14233963 0.000746047 -0.31858575 0.16217384 0.12235491 0.0162516 -0.2290475 -0.4132629
-0.42989996 -0.026238693 -0.30242705 -0.09653695 -0.008416297 -0.11536172 -0.13770536 -0.17830855

running_var f4 [16]
00000000: 013b 0f3e d7f5 073e 55f0 0c3e 480c ed3d
00000010: 711d a33d 74a1 073e 4d6f 213e ec1c 0e3e
00000020: 4087 493e 6d81 dd3d 8e5b 183e fa79 0c3e
00000030: fd5d 033e 7a32 b43d 54f3 a33d 8125 113e
0.13987352 0.13277374 0.13763554 0.11574608 0.079646 0.13245183 0.15765114 0.1387822
0.196805 0.10815702 0.14878675 0.13718405 0.12828822 0.0879869 0.080053955 0.14174463

weight f4 [16, 16, 3, 3]
00000000: 8de8 7ebc c20d 25bd 9024 ab3d cfef 903d
00000010: abde debc 0010 533d 3673 00bd d77f 61bb
00000020: c1c7 953d 78a9 8a3c 491a 69ba fd1a a2bc
00000030: 2737 303d 6187 753c 9c8e 39bb 8aa3 78bd
00000040: 050f cf3c e2de 23bd e503 d0bb a4a2 413d
00000050: 6a91 933b 388e 773a 350e 003d f995 ccbc
00000060: 08f0 8abd 635e 8bbd 3ba4 6c3b 8552 82bc
00000070: 6022 96bd d673 a83d 45cd 6dbd fe89 353d
00000080: 59e0 cebd 52e9 58bd d01c 033d 2bfc a2bd
00000090: 080b 3e3d 8b4d 8d3c 926b 01bc 075e 1dbd
000000a0: 3300 11bd 0b4c a2bc d709 8c3d 5f35 77bd
000000b0: 2fda 12bc e4d2 a23d 6133 71bc dfb4 a43c
000000c0: dca8 683c c323 08bd 399f 9dbc ce06 ad3d
000000d0: 491e 8fbd 831f a5bd 0a5d a4bc adfc cdbc
000000e0: 9e5f adbd f9fc 953d cfa4 35bd 6401 a0bd
000000f0: dc73 603d 7015 5abc fdc4 8a3d c6a6 9abc
00000100: fe07 85bd b07c bb3d 5e05 72bd 50b0 2c3d
00000110: 0598 f63d f8bb cc3d fa6b c83d 4065 5dba
00000120: 9b82 96bd a4e7 4cbd 72c5 a13c 2f14 ec3c
00000130: 6220 33bd 9426 babd 22d2 613c 14dc 15bd
00000140: bf35 43bd 3d27 bcbb e693 22bd 9ca6 873d
00000150: 7cfd b93d 2466 943d 6238 673d f5bc 7d3b
00000160: 6f07 853d 78e8 86bc db2d 273d e082 37bd
00000170: 0027 863d 41c5 ce3d 5c00 95bc 1b78 46bd
00000180: 3318 b23c 3e58 43bd 3cf2 813d 3b1d 123c
00000190: dab7 a53d 6eb7 43bd be6a fe3c c171 ce3d
000001a0: 7b90 e53c 803a 953c c962 283b 4cd7 1e3d
000001b0: 323a 7b3c 4c89 dd3b bbc2 b7bd a0cb 9d3d
000001c0: 8289 61bd 372a 23bd e903 05bd 5fd8 64bd
000001d0: 1309 fdbb 155c 90bc 8d9e 48bb e461 b7bb
000001e0: 156e 663d 9aa8 b7bd 3171 5c3d 46b2 133b
000001f0: 4c35 e2bc 533f 22bd 40f9 8bbd 00f8 ab3d
00000200: d912 363d 7a8a 79bd 3937 aa3d 830a 503d
00000210: 87f3 31bd 9b0a 8fbd b3e1 87bd 3d09 acbd
00000220: 9a3c 5f3d cb78 993d 7359 98bc 0e36 603c
00000230: 3f7d eebb 0e47 91bd 2250 993d 68fb 5ebd
00000240: 9990 a63b c01e 5e3c ba0b f9bc a996 323c
00000250: b27d 093c d9c4 123d 1f04 7dbd 5ffd 2fbb
00000260: fee5 ba3d d84d a1bd 32a6 69bd 6093 19bd
00000270: 35b0 d9bc 7ebf 743c b4ca 09bd 4969 56bd
00000280: 8222 b7bd 53d2 b13a 6178 4c3b e81e 053d
00000290: a46d dfbc 74c3 f53c f529 6abc bb2e 6c3d
000002a0: 8154 3d3d 7770 823d c70b e43c ec56 bb3d
000002b0: cceb 123c fdf0 69bd 74d2 77bd 36b3 37bd
000002c0: ccf8 403c b384 233d 9104 463d 92f5 4e3d
000002d0: c9d6 5cbd 2c79 ebbc e994 b53d 2ad5 c3bd
000002e0: 8437 1c3d ee02 e03c 30db b1bc ba24 a43d
000002f0: ebfe 59bd c95f 103c e130 1b3d 3bc7 eb3c
00000300: 9b65 02bc 6587 7e3c e00f 46bd c08f 8dbc
00000310: ce12 b6bc e933 b63d 10b0 953d c764 bcbd
00000320: afe6 803d 4d90 aebd aeaa f73b bd32 19bd
00000330: 367c 713d 9600 603d e5c0 243c 7ed5 903c
00000340: 969f 55bd 9ca7 e93c 04ae 8e3d fdae 2ebc
00000350: 75d9 d33c 24bd 39bd 4ef3 87bd 55f4 b6bc
00000360: 5384 483d e199 713d ef45 ed3c f0da 143d
00000370: 3310 f63c b923 25bd 4ab7 8a3d 71aa 863d
00000380: fc18 b2bd 9bd8 073d d84a 2c3d ebf4 8a3d
00000390: 3b61 733d e6b6 f63c 9b28 bdbd 41fb 01bd
000003a0: 473f 23bc 0ef3 cfbd 3ee8 82bd b807 163d
000003b0: 41f4 683a 1070 52bc 2b61 82bd 82c5 5b3b
000003c0: c4c9 d33c 26ca 9fbd 54e4 99bd e003 ab3c
000003d0: 4ac5 cfbc 64e2 963d 3008 8f3d d609 1c3d
000003e0: f2be 373d 3e55 a83d cf67 4e3d 6018 b63a
000003f0: 65e1 adbd 824d 573c e2cb 06bd 8dca 3c3b
-0.015558374 -0.040296324 0.08356583 0.0707699 -0.027205786 0.05152893 -0.031359874 -0.0034408474
0.07313491 0.016926512 -0.00088921614 -0.01978826 0.043021347 0.01498589 -0.0028313762 -0.060702838
0.025275717 -0.04000748 -0.0063481205 0.047274247 0.0045034187 0.00094434945 0.03126355 -0.024973856
-0.067840636 -0.06805112 0.0036108631 -0.015908489 -0.07330775 0.08225219 -0.05805709 0.044321053
-0.10101385 -0.052956887 0.0320099 -0.079582535 0.04639724 0.01724889 -0.007899182 -0.03841975
-0.03540058 -0.01981165 0.06837814 -0.060353633 -0.008963152 0.079503804 -0.014721722 0.020105777
0.014200415 -0.03323723 -0.019240962 0.084485635 -0.06988198 -0.08062651 -0.020063896 -0.0251449
-0.08465503 0.07323641 -0.044346627 -0.07812765 0.054797992 -0.013310775 0.06775854 -0.018878352
-0.06495665 0.09154642 -0.05908715 0.042160332 0.12040714 0.0999679 0.0978622 -0.00084455684
-0.0734913 -0.050025597 0.01974747 0.028818218 -0.043732055 -0.090893894 0.01378301 -0.036586836
-0.04765868 -0.0057419823 -0.03969183 0.06623575 0.090815514 0.07246044 0.056450255 0.0038717363
0.064955585 -0.016468272 0.040815216 -0.044802547 0.065504074 0.10096217 -0.018188648 -0.048454385
0.021740055 -0.047691576 0.06345031 0.008918102 0.080917075 -0.047782354 0.031056758 0.100802906
0.028022995 0.018216372 0.0025693646 0.03877954 0.015333699 0.006760752 -0.08972689 0.07704854
-0.05506278 -0.03983518 -0.032474432 -0.05587041 -0.007722029 -0.017622033 -0.0030612082 -0.0055963863
0.056257326 -0.08967705 0.053818885 0.002253668 -0.027613305 -0.039611172 -0.0683465 0.083969116
0.04445157 -0.060923077 0.08311314 0.050791275 -0.043445136 -0.06984445 -0.066348456 -0.084001996
0.054501154 0.074937426 -0.01859734 0.013684763 -0.007278114 -0.07093631 0.07485987 -0.05443898
0.0050831554 0.013557136 -0.0304011 0.010900178 0.0083917845 0.03583226 -0.06177151 -0.0026853902
0.09125899 -0.07876176 -0.05704326 -0.037494063 -0.02657328 0.014938233 -0.03364058 -0.0523465
-0.08942129 0.001356671 0.003119968 0.032500178 -0.02727396 0.030000426 -0.01429223 0.057661753
0.046223167 0.06369107 0.027837647 0.091474384 0.008967351 -0.05711459 -0.060503438 -0.044848643
0.011778068 0.039921474 0.0483442 0.050527163 -0.053915773 -0.028744303 0.08866293 -0.09562142
0.03813888 0.027345147 -0.021710962 0.080148175 -0.053221624 0.008811899 0.03788841 0.028781524
-0.007958795 0.01553521 -0.048354983 -0.01728046 -0.022225764 0.0889662 0.07308972 -0.09198909
0.062939994 -0.08523617 0.0075581884 -0.037401903 0.058956347 0.05468806 0.010055755 0.017679926
-0.052154146 0.028522305 0.069667846 -0.010661838 0.025860528 -0.045346394 -0.066382036 -0.022333303
0.04895432 0.05898464 0.028964011 0.036341608 0.030037021 -0.04031727 0.06773241 0.06575478
-0.08696172 0.033165555 0.042063564 0.06784996 0.059418898 0.03011651 -0.092362605 -0.031733755
-0.009963817 -0.10153781 -0.06391953 0.036628455 0.00088864943 -0.012844101 -0.063661896 0.0033534472
0.025853045 -0.07802229 -0.07514253 0.020875871 -0.02536263 0.07367399 0.069839835 0.038095318
0.044859834 0.08219384 0.05039197 0.0013892762 -0.08490256 0.013141038 -0.03290928 0.0028807253

bias f4 [16]
00000000: 30fb bb3d b085 3cbd 0230 f0bb ef68 a03d
00000010: b28d b83c 9e67 3c3d 0519 24bb a6e4 283d
00000020: b16d 49bc a644 a43c 2c8b 10bc 304e a23d
00000030: 7ed5 3abd 5da1 e33c d69c 813c b10e 24bd
0.091787696 -0.04602593 -0.0073299417 0.078325145 0.022528503 0.045997255 -0.0025039327 0.04123368
-0.012294219 0.020052265 -0.008822244 0.07925069 -0.04561376 0.027786905 0.015821856 -0.040053073

weight f4 [16]
00000000: 4825 8e3f f0c9 8a3f 9f3e 883f 3973 8f3f
00000010: 7fd2 8e3f 0bf3 8d3f 0a1c 8e3f 891e 8a3f
00000020: 97fb 8b3f 645c 8e3f ce66 8c3f b986 8c3f
00000030: 8de0 8c3f 3795 893f e051 8f3f 04dc 893f
1.1105127 1.0842876 1.064411 1.1207038 1.1157988 1.1089796 1.1102307 1.0790569
1.0936154 1.1121945 1.0968874 1.0978614 1.1006027 1.0748662 1.1196861 1.0770268

bias f4 [16]
00000000: fd93 4b3d efdb 433d 99a7 143d baad 483d
00000010: 3df4 503d 2099 4d3d 718c 1b3d 44b2 353d
00000020: 8ecc 3c3d 0ee5 363d e60e 263d b252 1c3d
00000030: c9e2 673d 771e 5a3d 63e0 063d 1407 0d3d
0.04970168 0.047817167 0.036292646 0.048993804 0.051014174 0.05019486 0.037975732 0.04435946
0.046093516 0.044652037 0.040541552 0.038164802 0.056612764 0.05325171 0.032928836 0.03443058

running_mean f4 [16]
00000000: b774 1b3d 5b1f 1f3d 8cef 883e 3e47 e9bc
00000010: 8bfa cc3d 500b a93d ebc1 56bd 519d 523e
00000020: 41da de3d 8586 03bd 4fc3 473e e153 0c3e
00000030: 7c8f 37be 394e ad3c c719 4b3e ff4d 973d
0.037953105 0.038848262 0.2674526 -0.028476354 0.10008725 0.08254111 -0.05243103 0.20567824
0.108814724 -0.03211071 0.19508098 0.13703872 -0.17925829 0.021155464 0.19834052 0.073879234

running_var f4 [16]
00000000: e838 b33d d417 2c3e 5de5 f93d 98fc c83d
00000010: 1366 f33d c3fe fe3d 72c1 113e d757 163e
00000020: 51ba 243e d5b8 ce3d 3c14 be3d c275 e43d
00000030: 3d41 113e b45f b83d 2bce d83d bfa1 d03d
0.087510884 0.16805965 0.12201951 0.098138034 0.118847035 0.12450936 0.1423395 0.14681946
0.16086699 0.10093848 0.09281203 0.11155273 0.14185043 0.09002629 0.105861984 0.101871006

weight f4 [10, 3136]
00000000: 3eff 263d c3fd 033d cc35 7a3c 9c45 a63c
00000010: d3f5 773b 6ef4 be3b c00c d5ba 85e4 a9ba
00000020: fc22 3fbc 94be 1f3c 00f0 e23b 9155 333b
00000030: 73c9 ffbc f545 de3c 759d 063c 137c 383c
00000040: 3044 0dbd fdbb 2ebb a30c 803c e5bd 23bc
00000050: 2390 1a3c 9d42 a6bb 2cb3 24bc 37dd 2f3b
00000060: cda8 5dbb 7953 a33a dbe0 c63a 6c88 2cbc
00000070: 3368 8ebc 5ca7 873b dfc3 81bc d6be 813c
00000080: aded 9c3c f87b edba 79a1 f7bb eef8 41bc
00000090: 1429 9a3c d405 20bc a45f 3f3c 2cbc d43b
000000a0: 446c 60bb 949a ebbc 7bc8 13bd f56f 2a3b
000000b0: ce40 713c f625 123d 5195 3a3c f060 393c
000000c0: a9a8 9f3c 0b0c 903c 6912 28bb d422 cebb
000000d0: 608a 8ebb df7a 87bc 41f1 a43c 566f 6e3c
000000e0: 663d 37bd c618 013d fc78 5f3c 061f 563c
000000f0: 102b 62bc 8bc4 16bc 2fe4 82bb 3180 a53c
00000100: d3f3 cf3a 1254 303c 1d6d e0bb 4f20 36bd
00000110: be3b 133b 871e dcbc 55d5 393b ebf4 9d3c
00000120: 4b41 243c 4890 bcbc a665 bf3b fcbb 033b
00000130: 79fa abbb a5fc a33c ce8c 85bb 3d0c ebbb
00000140: 8355 b5bc 661b 1cbd b28b d83b 4d9f 52bd
00000150: 5415 793c bd03 4bbb 05e1 bb3c d89d d43b
00000160: cd39 453d d3a1 4c3c 3dad b43c 3a46 8d3c
00000170: c31f 99bb b964 60bc fa45 d6bb f2dc c4bc
00000180: 937f 7bbc 3b03 123b 20d2 90bb a75e 99bc
00000190: fc77 3b3a 5a1a 1bbc c5f1 633c 7cc0 a43c
000001a0: e776 73ba e400 8eba 1e21 f33b 8a14 ae3b
000001b0: 49e9 893b 3da8 1cbc 93f5 b539 613e 1fbd
000001c0: 4f0f b33b 5fd8 41bc 2295 f83b a040 d33b
000001d0: 3e77 c43c b2b7 113b 0b27 bdbb a25a 8e3c
000001e0: c50b bebc 0953 2cbc 0c82 74b9 758b c23c
000001f0: 60b4 9f3c 118e d6bc 60b0 a5bb e6d6 edbc
00000200: 7181 923c 0452 db3c 25bb e83c 4695 213c
00000210: 5fe9 14bc 7d91 94bb 24a8 5dbc e58b c839
00000220: ea5c 8abc 23b1 64bc caa3 313d 2128 813c
00000230: cd20 cabb 78d2 573b 3fff f23b 6d3c f33c
00000240: 186a 383c 805c 3b3c 304b 883b 58fd 16bb
00000250: 97b4 a1bc 9740 683c 2891 3b3a 0a76 d43a
00000260: 6a68 cb3c 39a9 bc3c ee85 043d e3ff 89bc
00000270: 6515 813b b5f1 2abc a644 3c3b c65a 1c3c
00000280: 723d ab3b 9a05 a2bc dd9b f33c 51ee d13c
00000290: 313f ab3a 04de 893b 2d12 cd3c 8f1f 273a
000002a0: 57d9 1abd f162 913c cd84 5fbc e86e b3bb
000002b0: 77d6 5e3c f505 8abc ddc1 cab8 a970 bebb
000002c0: d55b 5b3c 6ed8 0b3c 7c93 b83c 890a 81b9
000002d0: 3b96 1dbc 772d b43c b93b ba3c a469 143b
000002e0: 474b 003d f0f0 113c 67a5 3fbb 1c14 d23b
000002f0: 6171 423c 8fae 453c bccc d93b 0147 d83b
00000300: 2a41 463c 48b3 0a3c 353b 993b b014 b03c
00000310: 6a16 083c 553b adbb 2ddf 833c f032 5dbc
00000320: a1be 9739 a189 f2bb 53ff 49bb 6dd2 69bc
00000330: c93a 00bc 61e1 003c 9be6 40bc 8174 87bc
00000340: a807 243d 7018 be39 c2ce 3abd 02de 1bbd
00000350: 0598 56bc 2adb f4ba 072d 22ba 8728 b2bc
00000360: 9330 9cbb 6016 453c b2fc 043c 65c3 3a3b
00000370: 41c3 abbc 51eb 3939 8cd5 a73b 6dcb 4fbc
00000380: c052 83b9 0e54 423b d6c7 aa3b ecb0 e0bc
00000390: 7786 5fbb 5b25 8c3c 1d64 28bc be19 a7bb
000003a0: 9350 82bc 0ff7 4b3c eee5 883c 2efa d93b
000003b0: 829f 093c 4bf2 4f3b 7e8f 9abb fede 7e3c
000003c0: 1af8 f3bb d72a b7bc f923 b73c 64f7 d53c
000003d0: c827 fc3b 5ac4 803c b599 76bc 1ce7 7e39
000003e0: 12fa 13bc 4b35 22bb c131 9dbc 87b9 973b
000003f0: f7ee ba3b bfa7 e43c 6119 4fbb 5ccf febb
0.04077076 0.032224428 0.015271615 0.020296864 0.0037835732 0.005827478 -0.001625441 -0.0012961781
-0.011666056 0.009750027 0.006925583 0.0027364234 -0.031223988 0.027132967 0.008216252 0.01126005
-0.034488857 -0.0026662343 0.015631026 -0.009994005 0.009433779 -0.005073859 -0.0100524835 0.0026834735
-0.0033822537 0.001246079 0.0015173213 -0.010530572 -0.01738367 0.004139824 -0.015840469 0.015838068
0.019156301 -0.0018118611 -0.007557091 -0.011839135 0.018818416 -0.0097670145 0.011680517 0.0064921584
-0.003424422 -0.028760232 -0.036079865 0.0026006673 0.014724923 0.035680734 0.011388139 0.011314616
0.019489603 0.017583868 -0.002564574 -0.006290773 -0.0043499917 -0.016538082 0.02013457 0.014552912
-0.04473629 0.031517766 0.013639685 0.01306892 -0.013804212 -0.009202133 -0.0039944868 0.020202728
0.0015865512 0.010762231 -0.006848945 -0.044464406 0.002246603 -0.026870025 0.0028355916 0.019281825
0.010025333 -0.023018017 0.005840975 0.002010106 -0.0052483645 0.020017931 -0.004075623 -0.00717309
-0.022135502 -0.038112067 0.00660845 -0.051421452 0.015202839 -0.003097757 0.022934446 0.006488543
0.048150826 0.012489754 0.022055263 0.0172454 -0.0046729757 -0.013695889 -0.0065391036 -0.024031136
-0.01535024 0.0022279758 -0.00441958 -0.018721892 0.0007151363 -0.009466732 0.013912623 0.020111315
-0.0009287432 -0.0010834006 0.0074197194 0.005312507 0.004208718 -0.0095615955 0.00034705977 -0.03887785
0.0054644714 -0.011831372 0.0075861374 0.006446913 0.02398264 0.0022234735 -0.0057724766 0.017377201
-0.023198972 -0.010517844 -0.000233181 0.023748139 0.01949519 -0.02619079 -0.005056426 -0.029033136
0.017883988 0.026772507 0.02840955 0.00986225 -0.009088843 -0.004533945 -0.013528857 0.00038251202
-0.016890008 -0.013958248 0.043369092 0.015766205 -0.006168461 0.0032931846 0.0074156816 0.0296919
0.0112557635 0.011435628 0.0041593537 -0.0023039188 -0.019739432 0.014175556 0.0007155114 0.0016209495
0.024830062 0.02302991 0.032354288 -0.01684565 0.003939318 -0.010433604 0.002872744 0.009543126
0.0052258307 -0.019778062 0.029737407 0.025626333 0.0013065097 0.0042073745 0.025033081 0.0006375247
-0.037804928 0.017747374 -0.013642502 -0.0054758675 0.013600937 -0.016848544 -9.6682204e-05 -0.00581177
0.013388594 0.008535488 0.022531264 -0.00024612647 -0.009618337 0.021994336 0.022733556 0.0022645975
0.03132179 0.008907542 -0.0029242875 0.0064110886 0.011867852 0.012065544 0.0066467207 0.006600261
0.012100497 0.008465596 0.0046762475 0.02149424 0.008306125 -0.005286614 0.01609763 -0.013500914
0.00028942994 -0.0074016606 -0.003082235 -0.014271361 -0.0078265155 0.0078662345 -0.011773731 -0.016535046
0.040046364 0.0003625783 -0.045607336 -0.03805352 -0.013097768 -0.0018681039 -0.0006186519 -0.02174784
-0.0047665327 0.01202926 0.008116888 0.0028497812 -0.020967128 0.00017730637 0.0051218923 -0.012682778
-0.0002504792 0.0029652151 0.0052118106 -0.027428113 -0.0034107247 0.017107656 -0.010277775 -0.0050995043
-0.015907561 0.01244904 0.016711202 0.006652138 0.008399846 0.0031730111 -0.0047168126 0.015556095
-0.0074453475 -0.022359295 0.02235602 0.026118942 0.007695172 0.015718628 -0.015051295 0.00024309423
-0.009031789 -0.0024751003 -0.019188764 0.004630271 0.0057047564 0.027912019 -0.003160082 -0.007776184

bias f4 [10]
00000000: 1e82 473b b824 11bc cb1b 2abb 1e04 1cbc
00000010: 3731 643c 3594 2cba 009a 8f3c eea3 71bb
00000020: edd1 b7bb 73d0 bd3b
0.0030442546 -0.008858852 -0.0025956507 -0.009522466 0.013927749 -0.0006583364 0.017529488 -0.0036871391
-0.005609742 0.0057926713

exp_avg f4 [8, 1, 3, 3]
00000000: 3abb e1bc 618c 13bc f1f1 ae3b 99a2 85bc
00000010: ab96 ec3b e50c 623b 0647 14bc aa54 2c3c
00000020: 76e8 cd3c 5962 9e3d b102 933d 4cf5 853d
00000030: a3e9 e93d 65bd be3d 8f4a 873d 3a29 ef3d
00000040: c23f dd3d 9d05 b03d a892 d2bc 2664 ffbb
00000050: 70b4 3dbc f04c abbc 6394 a2bc a2d2 f2bb
00000060: 3db7 0cbd 8d47 37bc dbe3 253b bcbf 6ebb
00000070: c3d3 de3a 54dd c33b 6050 00bc 9168 a03a
00000080: 83a1 6e3b 64ff 6fbb 745f 0e3b 6943 9f3b
00000090: 2c30 433b e814 e43b e3c5 873c 25aa 7fbb
000000a0: 8e26 9dbb e6d8 9e3b cfb5 aebc 26da 48bc
000000b0: c8d9 a63b dbaf 2fbb 57e5 ba3b ba44 3d3d
000000c0: 1155 abbc 574e abbb 2b8f f23c 8bd4 1b3b
000000d0: 853c f13c 8383 a13d 0f0d 80bc a74f 013c
000000e0: 69a8 c23c 6fad 9c39 5124 673c 9410 9b3b
000000f0: 02b3 e0bb 043c 6bbc 789c 55bc 3c02 8f3d
00000100: ed26 eb3c 8e5d a63d f10e 723d f8a5 373d
00000110: 922b 603d 91bb b23d 6899 1a3d fa3e a13c
-0.027555097 -0.009005637 0.0053389003 -0.016312884 0.0072201095 0.003449255 -0.009050136 0.010518232
0.02513526 0.07733602 0.07178248 0.06540927 0.11421516 0.09313468 0.06606018 0.11677785
0.108031765 0.08594821 -0.025704697 -0.007793921 -0.011578664 -0.02091071 -0.019846147 -0.0074103633
-0.034354437 -0.011186493 0.0025312814 -0.00364302 0.0017000366 0.005977312 -0.007831663 0.0012238194
0.0036412186 -0.003662073 0.0021724375 0.004860331 0.0029783351 0.0069605 0.016573852 -0.0039011326
-0.004795856 0.0048476337 -0.021326927 -0.012259042 0.0050918795 -0.00268077 0.005703609 0.04620812
-0.020914586 -0.0052278447 0.029609283 0.0023777809 0.029447803 0.07886412 -0.015631227 0.007892526
0.023761945 0.00029883857 0.01410778 0.004732201 -0.006857277 -0.014357571 -0.013037793 0.06982848
0.028705085 0.08123313 0.05909628 0.044836015 0.054729052 0.08727182 0.037743956 0.01968335

exp_avg_sq f4 [8, 1, 3, 3]
00000000: eb1c ca3c b16b e13c 5579 083d 4629 853c
00000010: e2f8 a83c dd32 ed3c 6cde c03b 20b5 263c
00000020: 6812 b33c 3689 a63d bfcd 9e3d a007 a83d
00000030: 0c60 a73d 9b85 a03d af1c a93d a473 aa3d
00000040: 3f57 a53d b995 aa3d 8ada 963d e70b 923d
00000050: d85b 913d 7083 953d b8fc 8f3d 20f1 8e3d
00000060: e9c2 8d3d 7494 8a3d aeb8 883d 56e3 603a
00000070: 7559 9239 a2f1 7239 4f9f 523a 3306 3c39
00000080: 7c15 fe38 201d 9c3a 2a82 043a f3c9 d639
00000090: 59ea b33c 80d0 a73c 654d 933c 0d83 ae3c
000000a0: 61eb 9d3c 99aa 923c 816c a63c 5d59 9e3c
000000b0: 44e5 923c 7868 ce3b d536 a83c 6614 5d3d
000000c0: f999 763c 8fd5 083d 7ed8 8a3d f678 8b3c
000000d0: 7e1e 273d 2649 9e3d 011c 9c3d 7f21 913d
000000e0: 9e16 923d 5e18 9e3d 24f1 8f3d 9bdd 903d
000000f0: 2eed a43d e38c 963d 1134 983d 3075 1f3f
00000100: 8dd7 1e3f 35b9 243f 45de 313f 3f88 493f
00000110: bbfc 513f 6640 343f 3f76 413f a3ef 443f
0.024671992 0.027517172 0.033318836 0.016255032 0.02062649 0.028954918 0.0058858898 0.0101750195
0.021859363 0.0813164 0.07754087 0.08204579 0.08172616 0.07837983 0.08257424 0.08322838
0.080732815 0.083293386 0.07365902 0.071311764 0.07097596 0.0730046 0.07030624 0.06979585
0.06921942 0.067665964 0.0667585 0.00085787976 0.0002791394 0.00023168934 0.0008034603 0.00017931387
0.000121156656 0.0011910535 0.00050547963 0.00040967725 0.021962332 0.020485163 0.01798124 0.021302724
0.019277276 0.017903613 0.02031541 0.019329721 0.017931588 0.0062990747 0.020533958 0.05397453
0.015051358 0.03340679 0.06779574 0.017025452 0.040800564 0.07728796 0.07622529 0.07086467
0.0713322 0.077194914 0.07028416 0.07073518 0.08053051 0.07351091 0.07431806 0.6228819
0.62047654 0.64345104 0.6947978 0.7872352 0.8202626 0.70410764 0.75571054 0.76928157

exp_avg f4 [8]
00000000: bb6a 26be af0c 163d f8a4 63bc 7b19 a6bc
00000010: 623e 8cbc b0b7 923d ec56 1cbd c181 1d3d
-0.16251652 0.03663319 -0.013894312 -0.020275822 -0.01711959 0.07163942 -0.038168833 0.03845382

exp_avg_sq f4 [8]
00000000: 03d2 3b3f 2b3c 443e 07f7 253e 5eb3 383d
00000010: e0ce 1e3d 9f68 7e3f f8c8 2d3e 50c9 3c40
0.7336733 0.19163577 0.16207515 0.045092933 0.03877151 0.9937839 0.16971195 2.9497871

exp_avg f4 [8]
00000000: 4e66 30bc fc5e 1abc c952 f4bb ab27 54bc
00000010: 9755 1d3b c160 d53b dc2d 9bbb 1397 59bb
-0.010766579 -0.00942206 -0.007456158 -0.012948911 0.0024007314 0.006511778 -0.0047356915 -0.003320162

exp_avg_sq f4 [8]
00000000: 2e76 643b daf4 e13a 0204 993b 209b a03b
00000010: 5c59 9b3b db1e f63b 63dd 883b f049 843b
0.003486048 0.0017239109 0.004669667 0.004901305 0.004740877 0.0075110025 0.004176782 0.0040371343

exp_avg f4 [8]
00000000: 3d0f 8ebc 0cb3 703b d466 07bb 15b0 03bc
00000010: c3b1 92bb 6105 023c 10d3 aebb 9a7c 543b
-0.01734125 0.0036727814 -0.0020660656 -0.008037587 -0.0044767573 0.007935853 -0.005335219 0.00324229

exp_avg_sq f4 [8]
00000000: 3288 093c 95ec fe3a fea3 6b3b c884 e83b
00000010: 579c 2d3b 2a86 483c fe12 5a3b 40cb ad3c
0.008394288 0.0019449169 0.0035955901 0.007095907 0.002649089 0.012239018 0.003327548 0.021215081
